{"format": "layers-model", "generatedBy": "keras v2.4.0", "convertedBy": "TensorFlow.js Converter v2.3.0", "modelTopology": {"keras_version": "2.4.0", "backend": "tensorflow", "model_config": {"class_name": "Sequential", "config": {"name": "sequential_9", "layers": [{"class_name": "InputLayer", "config": {"batch_input_shape": [null, 28, 28, 1], "dtype": "float32", "sparse": false, "ragged": false, "name": "conv2d_18_input"}}, {"class_name": "Conv2D", "config": {"name": "conv2d_18", "trainable": true, "batch_input_shape": [null, 28, 28, 1], "dtype": "float32", "filters": 32, "kernel_size": [5, 5], "strides": [1, 1], "padding": "valid", "data_format": "channels_last", "dilation_rate": [1, 1], "groups": 1, "activation": "relu", "use_bias": true, "kernel_initializer": {"class_name": "GlorotUniform", "config": {"seed": null}}, "bias_initializer": {"class_name": "Zeros", "config": {}}, "kernel_regularizer": null, "bias_regularizer": null, "activity_regularizer": null, "kernel_constraint": null, "bias_constraint": null}}, {"class_name": "MaxPooling2D", "config": {"name": "max_pooling2d_18", "trainable": true, "dtype": "float32", "pool_size": [2, 2], "padding": "same", "strides": [2, 2], "data_format": "channels_last"}}, {"class_name": "Conv2D", "config": {"name": "conv2d_19", "trainable": true, "dtype": "float32", "filters": 64, "kernel_size": [5, 5], "strides": [1, 1], "padding": "valid", "data_format": "channels_last", "dilation_rate": [1, 1], "groups": 1, "activation": "relu", "use_bias": true, "kernel_initializer": {"class_name": "GlorotUniform", "config": {"seed": null}}, "bias_initializer": {"class_name": "Zeros", "config": {}}, "kernel_regularizer": null, "bias_regularizer": null, "activity_regularizer": null, "kernel_constraint": null, "bias_constraint": null}}, {"class_name": "MaxPooling2D", "config": {"name": "max_pooling2d_19", "trainable": true, "dtype": "float32", "pool_size": [2, 2], "padding": "same", "strides": [2, 2], "data_format": "channels_last"}}, {"class_name": "Flatten", "config": {"name": "flatten_9", "trainable": true, "dtype": "float32", "data_format": "channels_last"}}, {"class_name": "Dense", "config": {"name": "dense_18", "trainable": true, "dtype": "float32", "units": 128, "activation": "relu", "use_bias": true, "kernel_initializer": {"class_name": "GlorotUniform", "config": {"seed": null}}, "bias_initializer": {"class_name": "Zeros", "config": {}}, "kernel_regularizer": null, "bias_regularizer": null, "activity_regularizer": null, "kernel_constraint": null, "bias_constraint": null}}, {"class_name": "Dropout", "config": {"name": "dropout_9", "trainable": true, "dtype": "float32", "rate": 0.6, "noise_shape": null, "seed": null}}, {"class_name": "Dense", "config": {"name": "dense_19", "trainable": true, "dtype": "float32", "units": 1, "activation": "sigmoid", "use_bias": true, "kernel_initializer": {"class_name": "GlorotUniform", "config": {"seed": null}}, "bias_initializer": {"class_name": "Zeros", "config": {}}, "kernel_regularizer": null, "bias_regularizer": null, "activity_regularizer": null, "kernel_constraint": null, "bias_constraint": null}}]}}}, "weightsManifest": [{"paths": ["group1-shard1of1.bin"], "weights": [{"name": "conv2d_18/kernel", "shape": [5, 5, 1, 32], "dtype": "float32", "quantization": {"dtype": "uint8", "min": -0.5667491901154612, "scale": 0.0038818437679141175, "original_dtype": "float32"}}, {"name": "conv2d_18/bias", "shape": [32], "dtype": "float32", "quantization": {"dtype": "uint8", "min": -0.11422105980854409, "scale": 0.001098279421236001, "original_dtype": "float32"}}, {"name": "conv2d_19/kernel", "shape": [5, 5, 32, 64], "dtype": "float32", "quantization": {"dtype": "uint8", "min": -0.454327646891276, "scale": 0.0033406444624358533, "original_dtype": "float32"}}, {"name": "conv2d_19/bias", "shape": [64], "dtype": "float32", "quantization": {"dtype": "uint8", "min": -0.11319174766540527, "scale": 0.0009929100672403971, "original_dtype": "float32"}}, {"name": "dense_18/kernel", "shape": [1024, 128], "dtype": "float32", "quantization": {"dtype": "uint8", "min": -0.3835587524900249, "scale": 0.0038355875249002492, "original_dtype": "float32"}}, {"name": "dense_18/bias", "shape": [128], "dtype": "float32", "quantization": {"dtype": "uint8", "min": -0.09704098999500274, "scale": 0.0006882339715957641, "original_dtype": "float32"}}, {"name": "dense_19/kernel", "shape": [128, 1], "dtype": "float32", "quantization": {"dtype": "uint8", "min": -0.5590370767256793, "scale": 0.004903834006365608, "original_dtype": "float32"}}, {"name": "dense_19/bias", "shape": [1], "dtype": "float32", "quantization": {"dtype": "uint8", "min": -2.0812923908233643, "scale": 1.0, "original_dtype": "float32"}}]}]}