{"format": "layers-model", "generatedBy": "keras v2.4.0", "convertedBy": "TensorFlow.js Converter v2.3.0", "modelTopology": {"keras_version": "2.4.0", "backend": "tensorflow", "model_config": {"class_name": "Sequential", "config": {"name": "sequential_153", "layers": [{"class_name": "InputLayer", "config": {"batch_input_shape": [null, 28, 28, 1], "dtype": "float32", "sparse": false, "ragged": false, "name": "conv2d_306_input"}}, {"class_name": "Conv2D", "config": {"name": "conv2d_306", "trainable": true, "batch_input_shape": [null, 28, 28, 1], "dtype": "float32", "filters": 32, "kernel_size": [5, 5], "strides": [1, 1], "padding": "valid", "data_format": "channels_last", "dilation_rate": [1, 1], "groups": 1, "activation": "relu", "use_bias": true, "kernel_initializer": {"class_name": "GlorotUniform", "config": {"seed": null}}, "bias_initializer": {"class_name": "Zeros", "config": {}}, "kernel_regularizer": null, "bias_regularizer": null, "activity_regularizer": null, "kernel_constraint": null, "bias_constraint": null}}, {"class_name": "MaxPooling2D", "config": {"name": "max_pooling2d_306", "trainable": true, "dtype": "float32", "pool_size": [2, 2], "padding": "same", "strides": [2, 2], "data_format": "channels_last"}}, {"class_name": "Conv2D", "config": {"name": "conv2d_307", "trainable": true, "dtype": "float32", "filters": 64, "kernel_size": [5, 5], "strides": [1, 1], "padding": "valid", "data_format": "channels_last", "dilation_rate": [1, 1], "groups": 1, "activation": "relu", "use_bias": true, "kernel_initializer": {"class_name": "GlorotUniform", "config": {"seed": null}}, "bias_initializer": {"class_name": "Zeros", "config": {}}, "kernel_regularizer": null, "bias_regularizer": null, "activity_regularizer": null, "kernel_constraint": null, "bias_constraint": null}}, {"class_name": "MaxPooling2D", "config": {"name": "max_pooling2d_307", "trainable": true, "dtype": "float32", "pool_size": [2, 2], "padding": "same", "strides": [2, 2], "data_format": "channels_last"}}, {"class_name": "Flatten", "config": {"name": "flatten_153", "trainable": true, "dtype": "float32", "data_format": "channels_last"}}, {"class_name": "Dense", "config": {"name": "dense_306", "trainable": true, "dtype": "float32", "units": 128, "activation": "relu", "use_bias": true, "kernel_initializer": {"class_name": "GlorotUniform", "config": {"seed": null}}, "bias_initializer": {"class_name": "Zeros", "config": {}}, "kernel_regularizer": null, "bias_regularizer": null, "activity_regularizer": null, "kernel_constraint": null, "bias_constraint": null}}, {"class_name": "Dropout", "config": {"name": "dropout_153", "trainable": true, "dtype": "float32", "rate": 0.6, "noise_shape": null, "seed": null}}, {"class_name": "Dense", "config": {"name": "dense_307", "trainable": true, "dtype": "float32", "units": 1, "activation": "sigmoid", "use_bias": true, "kernel_initializer": {"class_name": "GlorotUniform", "config": {"seed": null}}, "bias_initializer": {"class_name": "Zeros", "config": {}}, "kernel_regularizer": null, "bias_regularizer": null, "activity_regularizer": null, "kernel_constraint": null, "bias_constraint": null}}]}}}, "weightsManifest": [{"paths": ["group1-shard1of1.bin"], "weights": [{"name": "conv2d_306/kernel", "shape": [5, 5, 1, 32], "dtype": "float32", "quantization": {"dtype": "uint8", "min": -0.4252661965641321, "scale": 0.0029738894864624623, "original_dtype": "float32"}}, {"name": "conv2d_306/bias", "shape": [32], "dtype": "float32", "quantization": {"dtype": "uint8", "min": -0.10736085778357936, "scale": 0.0013092787534582848, "original_dtype": "float32"}}, {"name": "conv2d_307/kernel", "shape": [5, 5, 32, 64], "dtype": "float32", "quantization": {"dtype": "uint8", "min": -0.47284480602133505, "scale": 0.003555224105423572, "original_dtype": "float32"}}, {"name": "conv2d_307/bias", "shape": [64], "dtype": "float32", "quantization": {"dtype": "uint8", "min": -0.05915973144126873, "scale": 0.0005528946863669975, "original_dtype": "float32"}}, {"name": "dense_306/kernel", "shape": [1024, 128], "dtype": "float32", "quantization": {"dtype": "uint8", "min": -0.4218256174349317, "scale": 0.004056015552258959, "original_dtype": "float32"}}, {"name": "dense_306/bias", "shape": [128], "dtype": "float32", "quantization": {"dtype": "uint8", "min": -0.05223849953389636, "scale": 0.0005022932647490034, "original_dtype": "float32"}}, {"name": "dense_307/kernel", "shape": [128, 1], "dtype": "float32", "quantization": {"dtype": "uint8", "min": -0.5879136464175057, "scale": 0.004665981320773854, "original_dtype": "float32"}}, {"name": "dense_307/bias", "shape": [1], "dtype": "float32", "quantization": {"dtype": "uint8", "min": -0.9223625063896179, "scale": 1.0, "original_dtype": "float32"}}]}]}