{"format": "layers-model", "generatedBy": "keras v2.4.0", "convertedBy": "TensorFlow.js Converter v2.3.0", "modelTopology": {"keras_version": "2.4.0", "backend": "tensorflow", "model_config": {"class_name": "Sequential", "config": {"name": "sequential_18", "layers": [{"class_name": "InputLayer", "config": {"batch_input_shape": [null, 28, 28, 1], "dtype": "float32", "sparse": false, "ragged": false, "name": "conv2d_36_input"}}, {"class_name": "Conv2D", "config": {"name": "conv2d_36", "trainable": true, "batch_input_shape": [null, 28, 28, 1], "dtype": "float32", "filters": 32, "kernel_size": [5, 5], "strides": [1, 1], "padding": "valid", "data_format": "channels_last", "dilation_rate": [1, 1], "groups": 1, "activation": "relu", "use_bias": true, "kernel_initializer": {"class_name": "GlorotUniform", "config": {"seed": null}}, "bias_initializer": {"class_name": "Zeros", "config": {}}, "kernel_regularizer": null, "bias_regularizer": null, "activity_regularizer": null, "kernel_constraint": null, "bias_constraint": null}}, {"class_name": "MaxPooling2D", "config": {"name": "max_pooling2d_36", "trainable": true, "dtype": "float32", "pool_size": [2, 2], "padding": "same", "strides": [2, 2], "data_format": "channels_last"}}, {"class_name": "Conv2D", "config": {"name": "conv2d_37", "trainable": true, "dtype": "float32", "filters": 64, "kernel_size": [5, 5], "strides": [1, 1], "padding": "valid", "data_format": "channels_last", "dilation_rate": [1, 1], "groups": 1, "activation": "relu", "use_bias": true, "kernel_initializer": {"class_name": "GlorotUniform", "config": {"seed": null}}, "bias_initializer": {"class_name": "Zeros", "config": {}}, "kernel_regularizer": null, "bias_regularizer": null, "activity_regularizer": null, "kernel_constraint": null, "bias_constraint": null}}, {"class_name": "MaxPooling2D", "config": {"name": "max_pooling2d_37", "trainable": true, "dtype": "float32", "pool_size": [2, 2], "padding": "same", "strides": [2, 2], "data_format": "channels_last"}}, {"class_name": "Flatten", "config": {"name": "flatten_18", "trainable": true, "dtype": "float32", "data_format": "channels_last"}}, {"class_name": "Dense", "config": {"name": "dense_36", "trainable": true, "dtype": "float32", "units": 128, "activation": "relu", "use_bias": true, "kernel_initializer": {"class_name": "GlorotUniform", "config": {"seed": null}}, "bias_initializer": {"class_name": "Zeros", "config": {}}, "kernel_regularizer": null, "bias_regularizer": null, "activity_regularizer": null, "kernel_constraint": null, "bias_constraint": null}}, {"class_name": "Dropout", "config": {"name": "dropout_18", "trainable": true, "dtype": "float32", "rate": 0.6, "noise_shape": null, "seed": null}}, {"class_name": "Dense", "config": {"name": "dense_37", "trainable": true, "dtype": "float32", "units": 1, "activation": "sigmoid", "use_bias": true, "kernel_initializer": {"class_name": "GlorotUniform", "config": {"seed": null}}, "bias_initializer": {"class_name": "Zeros", "config": {}}, "kernel_regularizer": null, "bias_regularizer": null, "activity_regularizer": null, "kernel_constraint": null, "bias_constraint": null}}]}}}, "weightsManifest": [{"paths": ["group1-shard1of1.bin"], "weights": [{"name": "conv2d_36/kernel", "shape": [5, 5, 1, 32], "dtype": "float32", "quantization": {"dtype": "uint8", "min": -0.4321390203401154, "scale": 0.0032987711476344687, "original_dtype": "float32"}}, {"name": "conv2d_36/bias", "shape": [32], "dtype": "float32", "quantization": {"dtype": "uint8", "min": -0.0883706022711361, "scale": 0.0007890232345637153, "original_dtype": "float32"}}, {"name": "conv2d_37/kernel", "shape": [5, 5, 32, 64], "dtype": "float32", "quantization": {"dtype": "uint8", "min": -0.5590869114679449, "scale": 0.003965155400481878, "original_dtype": "float32"}}, {"name": "conv2d_37/bias", "shape": [64], "dtype": "float32", "quantization": {"dtype": "uint8", "min": -0.07225536704063416, "scale": 0.000573455293973287, "original_dtype": "float32"}}, {"name": "dense_36/kernel", "shape": [1024, 128], "dtype": "float32", "quantization": {"dtype": "uint8", "min": -0.4133055599296794, "scale": 0.004174803635653327, "original_dtype": "float32"}}, {"name": "dense_36/bias", "shape": [128], "dtype": "float32", "quantization": {"dtype": "uint8", "min": -0.05881869012818618, "scale": 0.0005159534221770717, "original_dtype": "float32"}}, {"name": "dense_37/kernel", "shape": [128, 1], "dtype": "float32", "quantization": {"dtype": "uint8", "min": -0.6787315705243279, "scale": 0.0055181428497912835, "original_dtype": "float32"}}, {"name": "dense_37/bias", "shape": [1], "dtype": "float32", "quantization": {"dtype": "uint8", "min": -1.6390323638916016, "scale": 1.0, "original_dtype": "float32"}}]}]}