{"format": "layers-model", "generatedBy": "keras v2.4.0", "convertedBy": "TensorFlow.js Converter v2.3.0", "modelTopology": {"keras_version": "2.4.0", "backend": "tensorflow", "model_config": {"class_name": "Sequential", "config": {"name": "sequential_16", "layers": [{"class_name": "InputLayer", "config": {"batch_input_shape": [null, 28, 28, 1], "dtype": "float32", "sparse": false, "ragged": false, "name": "conv2d_32_input"}}, {"class_name": "Conv2D", "config": {"name": "conv2d_32", "trainable": true, "batch_input_shape": [null, 28, 28, 1], "dtype": "float32", "filters": 32, "kernel_size": [5, 5], "strides": [1, 1], "padding": "valid", "data_format": "channels_last", "dilation_rate": [1, 1], "groups": 1, "activation": "relu", "use_bias": true, "kernel_initializer": {"class_name": "GlorotUniform", "config": {"seed": null}}, "bias_initializer": {"class_name": "Zeros", "config": {}}, "kernel_regularizer": null, "bias_regularizer": null, "activity_regularizer": null, "kernel_constraint": null, "bias_constraint": null}}, {"class_name": "MaxPooling2D", "config": {"name": "max_pooling2d_32", "trainable": true, "dtype": "float32", "pool_size": [2, 2], "padding": "same", "strides": [2, 2], "data_format": "channels_last"}}, {"class_name": "Conv2D", "config": {"name": "conv2d_33", "trainable": true, "dtype": "float32", "filters": 64, "kernel_size": [5, 5], "strides": [1, 1], "padding": "valid", "data_format": "channels_last", "dilation_rate": [1, 1], "groups": 1, "activation": "relu", "use_bias": true, "kernel_initializer": {"class_name": "GlorotUniform", "config": {"seed": null}}, "bias_initializer": {"class_name": "Zeros", "config": {}}, "kernel_regularizer": null, "bias_regularizer": null, "activity_regularizer": null, "kernel_constraint": null, "bias_constraint": null}}, {"class_name": "MaxPooling2D", "config": {"name": "max_pooling2d_33", "trainable": true, "dtype": "float32", "pool_size": [2, 2], "padding": "same", "strides": [2, 2], "data_format": "channels_last"}}, {"class_name": "Flatten", "config": {"name": "flatten_16", "trainable": true, "dtype": "float32", "data_format": "channels_last"}}, {"class_name": "Dense", "config": {"name": "dense_32", "trainable": true, "dtype": "float32", "units": 128, "activation": "relu", "use_bias": true, "kernel_initializer": {"class_name": "GlorotUniform", "config": {"seed": null}}, "bias_initializer": {"class_name": "Zeros", "config": {}}, "kernel_regularizer": null, "bias_regularizer": null, "activity_regularizer": null, "kernel_constraint": null, "bias_constraint": null}}, {"class_name": "Dropout", "config": {"name": "dropout_16", "trainable": true, "dtype": "float32", "rate": 0.6, "noise_shape": null, "seed": null}}, {"class_name": "Dense", "config": {"name": "dense_33", "trainable": true, "dtype": "float32", "units": 1, "activation": "sigmoid", "use_bias": true, "kernel_initializer": {"class_name": "GlorotUniform", "config": {"seed": null}}, "bias_initializer": {"class_name": "Zeros", "config": {}}, "kernel_regularizer": null, "bias_regularizer": null, "activity_regularizer": null, "kernel_constraint": null, "bias_constraint": null}}]}}}, "weightsManifest": [{"paths": ["group1-shard1of1.bin"], "weights": [{"name": "conv2d_32/kernel", "shape": [5, 5, 1, 32], "dtype": "float32", "quantization": {"dtype": "uint8", "min": -0.7365061588147107, "scale": 0.004463673689786125, "original_dtype": "float32"}}, {"name": "conv2d_32/bias", "shape": [32], "dtype": "float32", "quantization": {"dtype": "uint8", "min": -0.1183891214576422, "scale": 0.0012868382767135022, "original_dtype": "float32"}}, {"name": "conv2d_33/kernel", "shape": [5, 5, 32, 64], "dtype": "float32", "quantization": {"dtype": "uint8", "min": -0.6252567416312648, "scale": 0.004140773123385859, "original_dtype": "float32"}}, {"name": "conv2d_33/bias", "shape": [64], "dtype": "float32", "quantization": {"dtype": "uint8", "min": -0.09589524917742785, "scale": 0.0009686388805800793, "original_dtype": "float32"}}, {"name": "dense_32/kernel", "shape": [1024, 128], "dtype": "float32", "quantization": {"dtype": "uint8", "min": -0.4816667858292075, "scale": 0.003980717238257913, "original_dtype": "float32"}}, {"name": "dense_32/bias", "shape": [128], "dtype": "float32", "quantization": {"dtype": "uint8", "min": -0.10404344493267582, "scale": 0.0010004177397372675, "original_dtype": "float32"}}, {"name": "dense_33/kernel", "shape": [128, 1], "dtype": "float32", "quantization": {"dtype": "uint8", "min": -0.6617865901367337, "scale": 0.0057546660011889884, "original_dtype": "float32"}}, {"name": "dense_33/bias", "shape": [1], "dtype": "float32", "quantization": {"dtype": "uint8", "min": -1.3597660064697266, "scale": 1.0, "original_dtype": "float32"}}]}]}