{"format": "layers-model", "generatedBy": "keras v2.4.0", "convertedBy": "TensorFlow.js Converter v2.3.0", "modelTopology": {"keras_version": "2.4.0", "backend": "tensorflow", "model_config": {"class_name": "Sequential", "config": {"name": "sequential_154", "layers": [{"class_name": "InputLayer", "config": {"batch_input_shape": [null, 28, 28, 1], "dtype": "float32", "sparse": false, "ragged": false, "name": "conv2d_308_input"}}, {"class_name": "Conv2D", "config": {"name": "conv2d_308", "trainable": true, "batch_input_shape": [null, 28, 28, 1], "dtype": "float32", "filters": 32, "kernel_size": [5, 5], "strides": [1, 1], "padding": "valid", "data_format": "channels_last", "dilation_rate": [1, 1], "groups": 1, "activation": "relu", "use_bias": true, "kernel_initializer": {"class_name": "GlorotUniform", "config": {"seed": null}}, "bias_initializer": {"class_name": "Zeros", "config": {}}, "kernel_regularizer": null, "bias_regularizer": null, "activity_regularizer": null, "kernel_constraint": null, "bias_constraint": null}}, {"class_name": "MaxPooling2D", "config": {"name": "max_pooling2d_308", "trainable": true, "dtype": "float32", "pool_size": [2, 2], "padding": "same", "strides": [2, 2], "data_format": "channels_last"}}, {"class_name": "Conv2D", "config": {"name": "conv2d_309", "trainable": true, "dtype": "float32", "filters": 64, "kernel_size": [5, 5], "strides": [1, 1], "padding": "valid", "data_format": "channels_last", "dilation_rate": [1, 1], "groups": 1, "activation": "relu", "use_bias": true, "kernel_initializer": {"class_name": "GlorotUniform", "config": {"seed": null}}, "bias_initializer": {"class_name": "Zeros", "config": {}}, "kernel_regularizer": null, "bias_regularizer": null, "activity_regularizer": null, "kernel_constraint": null, "bias_constraint": null}}, {"class_name": "MaxPooling2D", "config": {"name": "max_pooling2d_309", "trainable": true, "dtype": "float32", "pool_size": [2, 2], "padding": "same", "strides": [2, 2], "data_format": "channels_last"}}, {"class_name": "Flatten", "config": {"name": "flatten_154", "trainable": true, "dtype": "float32", "data_format": "channels_last"}}, {"class_name": "Dense", "config": {"name": "dense_308", "trainable": true, "dtype": "float32", "units": 128, "activation": "relu", "use_bias": true, "kernel_initializer": {"class_name": "GlorotUniform", "config": {"seed": null}}, "bias_initializer": {"class_name": "Zeros", "config": {}}, "kernel_regularizer": null, "bias_regularizer": null, "activity_regularizer": null, "kernel_constraint": null, "bias_constraint": null}}, {"class_name": "Dropout", "config": {"name": "dropout_154", "trainable": true, "dtype": "float32", "rate": 0.6, "noise_shape": null, "seed": null}}, {"class_name": "Dense", "config": {"name": "dense_309", "trainable": true, "dtype": "float32", "units": 1, "activation": "sigmoid", "use_bias": true, "kernel_initializer": {"class_name": "GlorotUniform", "config": {"seed": null}}, "bias_initializer": {"class_name": "Zeros", "config": {}}, "kernel_regularizer": null, "bias_regularizer": null, "activity_regularizer": null, "kernel_constraint": null, "bias_constraint": null}}]}}}, "weightsManifest": [{"paths": ["group1-shard1of1.bin"], "weights": [{"name": "conv2d_308/kernel", "shape": [5, 5, 1, 32], "dtype": "float32", "quantization": {"dtype": "uint8", "min": -0.3824258054003996, "scale": 0.002451447470515382, "original_dtype": "float32"}}, {"name": "conv2d_308/bias", "shape": [32], "dtype": "float32", "quantization": {"dtype": "uint8", "min": -0.05779140293598175, "scale": 0.0005665823817253112, "original_dtype": "float32"}}, {"name": "conv2d_309/kernel", "shape": [5, 5, 32, 64], "dtype": "float32", "quantization": {"dtype": "uint8", "min": -0.4040107937420116, "scale": 0.002992672546237123, "original_dtype": "float32"}}, {"name": "conv2d_309/bias", "shape": [64], "dtype": "float32", "quantization": {"dtype": "uint8", "min": -0.07538738016988718, "scale": 0.0006731016086597069, "original_dtype": "float32"}}, {"name": "dense_308/kernel", "shape": [1024, 128], "dtype": "float32", "quantization": {"dtype": "uint8", "min": -0.39940490827840913, "scale": 0.003300867010565365, "original_dtype": "float32"}}, {"name": "dense_308/bias", "shape": [128], "dtype": "float32", "quantization": {"dtype": "uint8", "min": -0.04686300659588739, "scale": 0.000564614537299848, "original_dtype": "float32"}}, {"name": "dense_309/kernel", "shape": [128, 1], "dtype": "float32", "quantization": {"dtype": "uint8", "min": -0.49143770979899987, "scale": 0.004061468676024792, "original_dtype": "float32"}}, {"name": "dense_309/bias", "shape": [1], "dtype": "float32", "quantization": {"dtype": "uint8", "min": 0.029072610661387444, "scale": 1.0, "original_dtype": "float32"}}]}]}